…
    <content type="text"><![CDATA[最近感冒了…真的难受啊wc…今天上第三节课前还接到了百度智能云的电话？？？话说现在这个服务都开始这样调研了吗…说看我最近使用了百度智能云，问我使用的什么功能我当然使用的是语音合成咯，然后又问我遇到什么困难…我说都有文档，挺简单的…问我是个人还是企业什么的…我人晕了 然后下午又打来了电话wdnmd，问我要不要服务器？？？？？？？敢情用户调查来人工精准投放广告来了？？？？]]></content>
      <categories>
        <category>daily</category>
      </categories>
      <tags>
        <tag>daily</tag>
      </tags>
  </entry>
  <entry>
    <title><![CDATA[用树莓派做数字识别并语音播报]]></title>
    <url>%2Fblog%2Fiot-mnist%2F</url>
    <content type="text"><![CDATA[MNIST ModelMNIST 本来keras就提供了数据集，直接建好model train就行了model是我自己随便建的一个标准CNN，相关结构123456789101112131415161718192021222324252627282930313233343536373839_________________________________________________________________Layer (type) Output Shape Param # =================================================================conv2d_1 (Conv2D) (None, 28, 28, 32) 320 _________________________________________________________________activation_1 (Activation) (None, 28, 28, 32) 0 _________________________________________________________________max_pooling2d_1 (MaxPooling2 (None, 14, 14, 32) 0 _________________________________________________________________dropout_1 (Dropout) (None, 14, 14, 32) 0 _________________________________________________________________conv2d_2 (Conv2D) (None, 14, 14, 64) 18496 _________________________________________________________________activation_2 (Activation) (None, 14, 14, 64) 0 _________________________________________________________________max_pooling2d_2 (MaxPooling2 (None, 7, 7, 64) 0 _________________________________________________________________dropout_2 (Dropout) (None, 7, 7, 64) 0 _________________________________________________________________flatten_1 (Flatten) (None, 3136) 0 _________________________________________________________________dense_1 (Dense) (None, 128) 401536 _________________________________________________________________activation_3 (Activation) (None, 128) 0 _________________________________________________________________dropout_3 (Dropout) (None, 128) 0 _________________________________________________________________dense_2 (Dense) (None, 64) 8256 _________________________________________________________________activation_4 (Activation) (None, 64) 0 _________________________________________________________________dropout_4 (Dropout) (None, 64) 0 _________________________________________________________________dense_3 (Dense) (None, 10) 650 =================================================================Total params: 429,258Trainable params: 429,258Non-trainable params: 0 训练code12345678910111213141516171819202122232425262728293031323334353637383940414243444546474849505152535455565758596061626364656667686970717273747576777879808182838485868788899091import numpy as npfrom keras.models import Sequentialfrom keras.layers.core import De
…
, y_val, x_test): emo = ['Angry', 'Disgust', 'Fear', 'Happy', 'Sad', 'Surprise', 'Neutral'] for i in range(10): plt.imshow(x_train[i]) plt.axis('off') plt.savefig('pic'+str(i)+'.jpg') plt.show() print(i, emo[y_train[i]]) for i in range(10): plt.imshow(x_test[i]) plt.axis('off') plt.savefig('test_pic'+str(i)+'.jpg') plt.show() 下面就是有关Model的部分 这是train出最好结果的Model结构print(model.summary()) 1234567891011121314151617181920212223242526272829303132333435363738394041424344454647484950515253Layer (type) Output Shape Param # =================================================================conv2d_1 (Conv2D) (None, 44, 44, 32) 832 _________________________________________________________________max_pooling2d_1 (MaxPooling2 (None, 22, 22, 32) 0 _________________________________________________________________batch_normalization_1 (Batch (None, 22, 22, 32) 128 _________________________________________________________________dropout_1 (Dropout) (None, 22, 22, 32) 0 _________________________________________________________________conv2d_2 (Conv2D) (None, 18, 18, 64) 51264 _________________________________________________________________max_pooling2d_2 (MaxPooling2 (None, 9, 9, 64) 0 _________________________________________________________________batch_normalization_2 (Batch (None, 9, 9, 64) 256 _________________________________________________________________dropout_2 (Dropout) (None, 9, 9, 64) 0 _________________________________________________________________conv2d_3 (Conv2D) (None, 7, 7, 128) 73856 _________________________________________________________________max_pooling2d_3 (MaxPooling2 (None, 3, 3, 128) 0 _________________________________________________________________batch_normalization_3 (Batch (None, 3, 3, 128) 512 _________________________________________________________________dropout_3 (Dropout) (None, 3, 3, 128) 0 _________________________________________________________________conv2d_4 (Conv2D) (None, 2, 2, 128) 65664 _________________________________________________________________max_pooling2d_4 (MaxPooling2 (None, 1, 1, 128) 0 _________________________________________________________________flatten_1 (Flatten) (None, 128) 0 _________________________________________________________________dense_1 (Dense) (None, 128) 16512 _________________________________________________________________activation_1 (Activation) (None, 128) 0 _________________________________________________________________dropout_4 (Dropout) (None, 128) 0 _________________________________________________________________dense_2 (Dense) (None, 64) 8256 _________________________________________________________________activation_2 (Activation) (None, 64) 0 _________________________________________________________________dropout_5 (Dropout) (None, 64) 0 _________________________________________________________________dense_3 (Dense) (None, 7) 455 _________________________________________________________________activation_3 (Activation) (None, 7) 0 =================================================================Total params: 217,735Trainable params: 217,287Non-trainable params: 448_________________________________________________________________None 第一个卷积层参数print(model.get_layer(&#39;conv2d_1&#39;).get_weights()) …[array([[[[ … dtype=float32), array([ … dtype=float32)] 每一块是32个，一共26块，前面是weight，后面是bias吧… 将training data第一张图丢进第一个卷积层中得到的结果 第32张
…
